
 => creating model 'VGG16'
VGG(
  (features): Sequential(
    (0): Conv2d(3, 64, kernel_size=(3, 3), stride=(1, 1), padding=(1, 1), bias=False)
    (1): ReLU(inplace)
    (2): Dropout(p=0.2)
    (3): Conv2d(64, 64, kernel_size=(3, 3), stride=(1, 1), padding=(1, 1), bias=False)
    (4): ReLU(inplace)
    (5): AvgPool2d(kernel_size=2, stride=2, padding=0)
    (6): Conv2d(64, 128, kernel_size=(3, 3), stride=(1, 1), padding=(1, 1), bias=False)
    (7): ReLU(inplace)
    (8): Dropout(p=0.2)
    (9): Conv2d(128, 128, kernel_size=(3, 3), stride=(1, 1), padding=(1, 1), bias=False)
    (10): ReLU(inplace)
    (11): AvgPool2d(kernel_size=2, stride=2, padding=0)
    (12): Conv2d(128, 256, kernel_size=(3, 3), stride=(1, 1), padding=(1, 1), bias=False)
    (13): ReLU(inplace)
    (14): Dropout(p=0.2)
    (15): Conv2d(256, 256, kernel_size=(3, 3), stride=(1, 1), padding=(1, 1), bias=False)
    (16): ReLU(inplace)
    (17): Dropout(p=0.2)
    (18): Conv2d(256, 256, kernel_size=(3, 3), stride=(1, 1), padding=(1, 1), bias=False)
    (19): ReLU(inplace)
    (20): AvgPool2d(kernel_size=2, stride=2, padding=0)
    (21): Conv2d(256, 512, kernel_size=(3, 3), stride=(1, 1), padding=(1, 1), bias=False)
    (22): ReLU(inplace)
    (23): Dropout(p=0.2)
    (24): Conv2d(512, 512, kernel_size=(3, 3), stride=(1, 1), padding=(1, 1), bias=False)
    (25): ReLU(inplace)
    (26): Dropout(p=0.2)
    (27): Conv2d(512, 512, kernel_size=(3, 3), stride=(1, 1), padding=(1, 1), bias=False)
    (28): ReLU(inplace)
    (29): AvgPool2d(kernel_size=2, stride=2, padding=0)
    (30): Conv2d(512, 512, kernel_size=(3, 3), stride=(1, 1), padding=(1, 1), bias=False)
    (31): ReLU(inplace)
    (32): Dropout(p=0.2)
    (33): Conv2d(512, 512, kernel_size=(3, 3), stride=(1, 1), padding=(1, 1), bias=False)
    (34): ReLU(inplace)
    (35): Dropout(p=0.2)
    (36): Conv2d(512, 512, kernel_size=(3, 3), stride=(1, 1), padding=(1, 1), bias=False)
    (37): ReLU(inplace)
    (38): AvgPool2d(kernel_size=2, stride=2, padding=0)
  )
  (classifier): Sequential(
    (0): Linear(in_features=25088, out_features=4096, bias=False)
    (1): ReLU(inplace)
    (2): Dropout(p=0.2)
    (3): Linear(in_features=4096, out_features=4096, bias=False)
    (4): ReLU(inplace)
    (5): Dropout(p=0.2)
    (6): Linear(in_features=4096, out_features=1000, bias=False)
  )
)
 => loading checkpoint 'best_ann_vgg16_imagenet.pth'
LR: 0.01 Epoch: [0][   0/5005]	Time 26.980 (26.980)	Data  3.532 ( 3.532)	Loss 1.5050e+00 (1.5050e+00)	Acc@1  66.02 ( 66.02)	Acc@5  86.72 ( 86.72)
LR: 0.01 Epoch: [0][ 500/5005]	Time  0.527 ( 0.633)	Data  0.000 ( 0.164)	Loss 2.2740e+00 (1.9265e+00)	Acc@1  50.00 ( 55.70)	Acc@5  74.22 ( 78.89)
LR: 0.01 Epoch: [0][1000/5005]	Time  0.514 ( 0.609)	Data  0.000 ( 0.161)	Loss 1.9498e+00 (1.9418e+00)	Acc@1  54.69 ( 55.29)	Acc@5  79.30 ( 78.67)
…
