…
k.l30', 'module.leak.l33', 'module.leak.l36', 'module.leak.l39', 'module.leak.l42', 'module.leak.l6', 'module.leak.l9'], Unexpected Keys: []
 Info: Accuracy of loaded ANN model: 0.7182
 Info: Thresholds loaded from trained ANN: [1.5265676975250244, 2.3770864009857178, 0.5458261370658875, 1.2212934494018555, 0.38306117057800293, 0.8224923014640808, 0.4925486147403717, 0.16675657033920288, 0.5898769497871399, 1.7063789367675781, 1.301668643951416, 2.4691643714904785, 2.520913600921631, 1.2273887395858765, 1.560093879699707]
 DataParallel(
  (module): VGG_SNN(
    (features): Sequential(
      (0): Conv2d(3, 64, kernel_size=(3, 3), stride=(1, 1), padding=(1, 1), bias=False)
      (1): ReLU(inplace=True)
      (2): Dropout(p=0.1, inplace=False)
      (3): Conv2d(64, 64, kernel_size=(3, 3), stride=(1, 1), padding=(1, 1), bias=False)
      (4): ReLU(inplace=True)
      (5): AvgPool2d(kernel_size=2, stride=2, padding=0)
      (6): Conv2d(64, 128, kernel_size=(3, 3), stride=(1, 1), padding=(1, 1), bias=False)
      (7): ReLU(inplace=True)
      (8): Dropout(p=0.1, inplace=False)
      (9): Conv2d(128, 128, kernel_size=(3, 3), stride=(1, 1), padding=(1, 1), bias=False)
      (10): ReLU(inplace=True)
      (11): AvgPool2d(kernel_size=2, stride=2, padding=0)
      (12): Conv2d(128, 256, kernel_size=(3, 3), stride=(1, 1), padding=(1, 1), bias=False)
      (13): ReLU(inplace=True)
      (14): Dropout(p=0.1, inplace=False)
      (15): Conv2d(256, 256, kernel_size=(3, 3), stride=(1, 1), padding=(1, 1), bias=False)
      (16): ReLU(inplace=True)
      (17): Dropout(p=0.1, inplace=False)
      (18): Conv2d(256, 256, kernel_size=(3, 3), stride=(1, 1), padding=(1, 1), bias=False)
      (19): ReLU(inplace=True)
      (20): AvgPool2d(kernel_size=2, stride=2, padding=0)
      (21): Conv2d(256, 512, kernel_size=(3, 3), stride=(1, 1), padding=(1, 1), bias=False)
      (22): ReLU(inplace=True)
      (23): Dropout(p=0.1, inplace=False)
      (24): Conv2d(512, 512, kernel_size=(3, 3), stride=(1, 1), padding=(1, 1), bias=False)
      (25): ReLU(inplace=True)
      (26): Dropout(p=0.1, inplace=False)
      (27): Conv2d(512, 512, kernel_size=(3, 3), stride=(1, 1), padding=(1, 1), bias=False)
      (28): ReLU(inplace=True)
      (29): AvgPool2d(kernel_size=2, stride=2, padding=0)
      (30): Conv2d(512, 512, kernel_size=(3, 3), stride=(1, 1), padding=(1, 1), bias=False)
      (31): ReLU(inplace=True)
      (32): Dropout(p=0.1, inplace=False)
      (33): Conv2d(512, 512, kernel_size=(3, 3), stride=(1, 1), padding=(1, 1), bias=False)
      (34): ReLU(inplace=True)
      (35): Dropout(p=0.1, inplace=False)
      (36): Conv2d(512, 512, kernel_size=(3, 3), stride=(1, 1), padding=(1, 1), bias=False)
      (37): ReLU(inplace=True)
      (38): Dropout(p=0.1, inplace=False)
    )
    (classifier): Sequential(
      (0): Linear(in_features=2048, out_features=4096, bias=False)
      (1): ReLU(inplace=True)
      (2): Dropout(p=0.1, inplace=False)
      (3): Linear(in_features=4096, out_features=4096, bias=False)
      (4): ReLU(inplace=True)
      (5): Dropout(p=0.1, inplace=False)
      (6): Linear(in_features=4096, out_features=100, bias=False)
    )
    (threshold): ParameterDict(
        (t0): Parameter containing: [torch.cuda.FloatTensor of size  (GPU 0)]
        (t12): Parameter containing: [torch.cuda.FloatTensor of size  (GPU 0)]
        (t15): Parameter containing: [torch.cuda.FloatTensor of size  (GPU 0)]
        (t18): Parameter containing: [torch.cuda.FloatTensor of size  (GPU 0)]
…
