…
odule.leak.l0', 'module.leak.l10', 'module.leak.l11', 'module.leak.l12', 'module.leak.l13', 'module.leak.l14', 'module.leak.l15', 'module.leak.l16', 'module.leak.l17', 'module.leak.l18', 'module.leak.l19', 'module.leak.l20', 'module.leak.l21', 'module.leak.l22', 'module.leak.l23', 'module.leak.l24', 'module.leak.l3', 'module.leak.l6', 'module.leak.l9'], Unexpected Keys: []
 Info: Accuracy of loaded ANN model: 0.6464
 Info: Thresholds loaded from trained ANN: [1.5408837795257568, 2.553335666656494, 2.943711042404175]
 DataParallel(
  (module): RESNET_SNN(
    (pre_process): Sequential(
      (0): Conv2d(3, 64, kernel_size=(3, 3), stride=(1, 1), padding=(1, 1), bias=False)
      (1): ReLU()
      (2): Dropout(p=0.1, inplace=False)
      (3): Conv2d(64, 64, kernel_size=(3, 3), stride=(1, 1), padding=(1, 1), bias=False)
      (4): ReLU()
      (5): Dropout(p=0.1, inplace=False)
      (6): Conv2d(64, 64, kernel_size=(3, 3), stride=(1, 1), padding=(1, 1), bias=False)
      (7): ReLU()
      (8): AvgPool2d(kernel_size=2, stride=2, padding=0)
    )
    (layer1): Sequential(
      (0): BasicBlock(
        (residual): Sequential(
          (0): Conv2d(64, 64, kernel_size=(3, 3), stride=(1, 1), padding=(1, 1), bias=False)
          (1): ReLU()
          (2): Dropout(p=0.1, inplace=False)
          (3): Conv2d(64, 64, kernel_size=(3, 3), stride=(1, 1), padding=(1, 1), bias=False)
        )
        (identity): Sequential()
      )
      (1): BasicBlock(
        (residual): Sequential(
          (0): Conv2d(64, 64, kernel_size=(3, 3), stride=(1, 1), padding=(1, 1), bias=False)
          (1): ReLU()
          (2): Dropout(p=0.1, inplace=False)
          (3): Conv2d(64, 64, kernel_size=(3, 3), stride=(1, 1), padding=(1, 1), bias=False)
        )
        (identity): Sequential()
      )
    )
    (layer2): Sequential(
      (0): BasicBlock(
        (residual): Sequential(
          (0): Conv2d(64, 128, kernel_size=(3, 3), stride=(2, 2), padding=(1, 1), bias=False)
          (1): ReLU()
          (2): Dropout(p=0.1, inplace=False)
          (3): Conv2d(128, 128, kernel_size=(3, 3), stride=(1, 1), padding=(1, 1), bias=False)
        )
        (identity): Sequential(
          (0): Conv2d(64, 128, kernel_size=(1, 1), stride=(2, 2), bias=False)
        )
      )
      (1): BasicBlock(
        (residual): Sequential(
          (0): Conv2d(128, 128, kernel_size=(3, 3), stride=(1, 1), padding=(1, 1), bias=False)
          (1): ReLU()
          (2): Dropout(p=0.1, inplace=False)
          (3): Conv2d(128, 128, kernel_size=(3, 3), stride=(1, 1), padding=(1, 1), bias=False)
        )
        (identity): Sequential()
      )
    )
    (layer3): Sequential(
      (0): BasicBlock(
        (residual): Sequential(
          (0): Conv2d(128, 256, kernel_size=(3, 3), stride=(2, 2), padding=(1, 1), bias=False)
          (1): ReLU()
          (2): Dropout(p=0.1, inplace=False)
          (3): Conv2d(256, 256, kernel_size=(3, 3), stride=(1, 1), padding=(1, 1), bias=False)
        )
        (identity): Sequential(
          (0): Conv2d(128, 256, kernel_size=(1, 1), stride=(2, 2), bias=False)
        )
      )
      (1): BasicBlock(
        (residual): Sequential(
          (0): Conv2d(256, 256, kernel_size=(3, 3), stride=(1, 1), padding=(1, 1), bias=False)
          (1): ReLU()
          (2): Dropout(p=0.1, inplace=False)
          (3): Conv2d(256, 256, kernel_size=(3, 3), stride=(1, 1), padding=(1, 1), bias=False)
        )
        (identity): Sequential()
      )
    )
    (layer4): Sequential(
      (0): BasicBlock(
        (residual): Sequential(
          (0): Conv2d(256, 512, kernel_size=(3, 3), stride=(2, 2), padding=(1, 1), bias=False)
          (1): ReLU()
          (2): Dropout(p=0.1, inplace=False)
          (3): Conv2d(512, 512, kernel_size=(3, 3), stride=(1, 1), padding=(1, 1), bias=False)
        )
        (identity): Sequential(
          (0): Conv2d(256, 512, kernel_size=(1, 1), stride=(2, 2), bias=False)
        )
      )
      (1): BasicBlock(
        (residual): Sequential(
          (0): Conv2d(512, 512, kernel_size=(3, 3), stride=(1, 1), padding=(1, 1), bias=False)
          (1): ReLU()
          (2): Dropout(p=0.1, inplace=False)
          (3): Conv2d(512, 512, kernel_size=(3, 3), stride=(1, 1), padding=(1, 1), bias=False)
        )
        (identity): Sequential()
      )
    )
    (classifier): Sequential(
      (0): Linear(in_features=2048, out_features=100, bias=False)
    )
    (threshold): ParameterDict(
        (t0): Parameter containing: [torch.cuda.FloatTensor of size  (GPU 0)]
        (t10): Parameter containing: [torch.cuda.FloatTensor of size  (GPU 0)]
        (t11): Parameter containing: [torch.cuda.FloatTensor of size  (GPU 0)]
        (t12): Parameter containing: [torch.cuda.FloatTensor of size  (GPU 0)]
…
